…
 90 return params, args 91 ~\\Documents\\github\\ivory\\ivory\\utils\\params.py in update_dict(org, update) 28 x[k] = value 29 elif type(x[k]) is not type(value) and x[k] is not None: ---> 30 raise ValueError(f\"different type: {type(x[k])} != {type(value)}\") 31 else: 32 if isinstance(x[k], dict): List A list parameter can be overwritten by passing a new list. Off course you can change the lengh of the list. The original hidden_sizes was [10, 20] . run = experiment.create_run(hidden_sizes=[2, 3, 4]) run.model [11] 2020-06-01 09:54:09 ( 139ms ) python3 ( 6.56s ) Model( (layers): ModuleList( (0): Linear(in_features=2, out_features=2, bias=True) (1): Linear(in_features=2, out_features=3, bias=True) (2): Linear(in_features=3, out_features=4, bias=True) (3): Linear(in_features=4, out_features=1, bias=True) ) ) As an alternative way, you can use 0-indexed colon-notation like below. In this case, pass a dictionary to the first argument, because a colon ( : ) can't be in keyword arguments. params = { \"hidden_sizes:0\": 10, # Order is important. \"hidden_sizes:1\": 20, # Start from 0. \"hidden_sizes:2\": 30, # No skip. No reverse. } run = experiment.create_run(params) run.model [12] 2020-06-01 09:54:09 ( 45.0ms ) python3 ( 6.61s ) Model( (layers): ModuleList( (0): Linear(in_features=2, out_features=10, bias=True) (1): Linear(in_features=10, out_features=20, bias=True) (2): Linear(in_features=20, out_features=30, bias=True) (3): Linear(in_features=30, out_features=1, bias=True) ) ) Do you feel this method is unnecessary? This method is prepared for hyperparameter tuning . In some case, you may want to change a part of list. Use 0-indexed dot-notation . params = {\"hidden_sizes.1\": 5} run = experiment.create_run(params) run.model [13] 2020-06-01 09:54:09 ( 46.0ms ) python3 ( 6.65s ) Model( (layers): ModuleList( (0): Linear(in_features=2, out_features=20, bias=True) (1): Linear(in_features=20, out_features=5, bias=True) (2): Linear(in_features=5, out_features=1, bias=True) ) ) Duplicated parameter name Duplicated parameters with the same name are updated together. run = experiment.create_run(patience=5) run.scheduler.patience, run.early_stopping.patience [14] 2020-06-01 09:54:09 ( 44.0ms ) python3 ( 6.70s ) (5, 5) This behavior is natural to update the parameters with the same meaning. But in the above example, the patience 
…
 update_dict(org, update) 28 x[k] = value 29 elif type(x[k]) is not type(value) and x[k] is not None: ---> 30 raise ValueError(f\"different type: {type(x[k])} != {type(value)}\") 31 else: 32 if isinstance(x[k], dict):","title":"Simple literal (int, float, str)"},{"location":"tutorial/core/#list","text":"A list parameter can be overwritten by passing a new list. Off course you can change the lengh of the list. The original hidden_sizes was [10, 20] . run = experiment.create_run(hidden_sizes=[2, 3, 4]) run.model [11] 2020-06-01 09:54:09 ( 139ms ) python3 ( 6.56s ) Model( (layers): ModuleList( (0): Linear(in_features=2, out_features=2, bias=True) (1): Linear(in_features=2, out_features=3, bias=True) (2): Linear(in_features=3, out_features=4, bias=True) (3): Linear(in_features=4, out_features=1, bias=True) ) ) As an alternative way, you can use 0-indexed colon-notation like below. In this case, pass a dictionary to the first argument, because a colon ( : ) can't be in keyword arguments. params = { \"hidden_sizes:0\": 10, # Order is important. \"hidden_sizes:1\": 20, # Start from 0. \"hidden_sizes:2\": 30, # No skip. No reverse. } run = experiment.create_run(params) run.model [12] 2020-06-01 09:54:09 ( 45.0ms ) python3 ( 6.61s ) Model( (layers): ModuleList( (0): Linear(in_features=2, out_features=10, bias=True) (1): Linear(in_features=10, out_features=20, bias=True) (2): Linear(in_features=20, out_features=30, bias=True) (3): Linear(in_features=30, out_features=1, bias=True) ) ) Do you feel this method is unnecessary? This method is prepared for hyperparameter tuning . In some case, you may want to change a part of list. Use 0-indexed dot-notation . params = {\"hidden_sizes.1\": 5} run = experiment.create_run(params) run.model [13] 2020-06-01 09:54:09 ( 46.0ms ) python3 ( 6.65s ) Model( (layers): ModuleList( (0): Linear(in_features=2, out_features=20, bias=True) (1): Linear(in_features=20, out_features=5, bias=True) (2): Linear(in_features=5, out_features=1, bias=True) ) )","title":"List"},{"location":"tutorial/core/#duplicated-parameter-name","text":"Duplicated parameters with the same name are updated together. run = experiment.create_run(patience=5) run.scheduler.patience, run.early_stopping.patience [14] 2020-06-01 09:54:09 ( 44.0ms ) python3 ( 6.70s ) (5, 5) This behavior is natural to update the parameters with the
…
